…
> 
> # build the neural network
> three.layer.model <- function() {
+   model <- keras_model_sequential() 
+   model %>%
+     layer_dense(units = .... [TRUNCATED] 

> layer3_model <- three.layer.model()

> layer3_model %>% summary()
Model: "sequential"
____________________________________________________________________________________________________
 Layer (type)                                Output Shape                            Param #        
====================================================================================================
 dense_3 (Dense)                             (None, 384)                             39552          
 dropout_2 (Dropout)                         (None, 384)                             0              
 dense_2 (Dense)                             (None, 16)                              6160           
 dropout_1 (Dropout)                         (None, 16)                              0              
 dense_1 (Dense)                             (None, 16)                              272            
 dropout (Dropout)                           (None, 16)                              0              
 dense (Dense)                               (None, 1)                               17             
====================================================================================================
Total params: 46,001
Trainable params: 46,001
Non-trainable params: 0
____________________________________________________________________________________________________

> # define early stop monitor
> early_stop <- callback_early_stopping(monitor = "val_loss", patience = 20)

> # define the number of epochs
…
