Model: "sequential"
________________________________________________________________________________
Layer (type)                        Output Shape                    Param #     
================================================================================
dense_4 (Dense)                     (None, 128)                     13184       
________________________________________________________________________________
dropout_3 (Dropout)                 (None, 128)                     0           
________________________________________________________________________________
dense_3 (Dense)                     (None, 64)                      8256        
________________________________________________________________________________
dropout_2 (Dropout)                 (None, 64)                      0           
________________________________________________________________________________
dense_2 (Dense)                     (None, 8)                       520         
________________________________________________________________________________
dropout_1 (Dropout)                 (None, 8)                       0           
________________________________________________________________________________
dense_1 (Dense)                     (None, 32)                      288         
________________________________________________________________________________
dropout (Dropout)                   (None, 32)                      0           
________________________________________________________________________________
dense (Dense)                       (None, 1)                       33          
================================================================================
Total params: 22,281
Trainable params: 22,281
Non-trainable params: 0
________________________________________________________________________________
