Model: "sequential"
________________________________________________________________________________
Layer (type)                        Output Shape                    Param #     
================================================================================
dense_5 (Dense)                     (None, 64)                      6592        
________________________________________________________________________________
dropout_4 (Dropout)                 (None, 64)                      0           
________________________________________________________________________________
dense_4 (Dense)                     (None, 32)                      2080        
________________________________________________________________________________
dropout_3 (Dropout)                 (None, 32)                      0           
________________________________________________________________________________
dense_3 (Dense)                     (None, 16)                      528         
________________________________________________________________________________
dropout_2 (Dropout)                 (None, 16)                      0           
________________________________________________________________________________
dense_2 (Dense)                     (None, 4)                       68          
________________________________________________________________________________
dropout_1 (Dropout)                 (None, 4)                       0           
________________________________________________________________________________
dense_1 (Dense)                     (None, 128)                     640         
________________________________________________________________________________
dropout (Dropout)                   (None, 128)                     0           
________________________________________________________________________________
dense (Dense)                       (None, 1)                       129         
================================================================================
Total params: 10,037
Trainable params: 10,037
Non-trainable params: 0
________________________________________________________________________________
