Model: "sequential"
________________________________________________________________________________
Layer (type)                        Output Shape                    Param #     
================================================================================
dense_4 (Dense)                     (None, 64)                      6592        
________________________________________________________________________________
dropout_3 (Dropout)                 (None, 64)                      0           
________________________________________________________________________________
dense_3 (Dense)                     (None, 64)                      4160        
________________________________________________________________________________
dropout_2 (Dropout)                 (None, 64)                      0           
________________________________________________________________________________
dense_2 (Dense)                     (None, 32)                      2080        
________________________________________________________________________________
dropout_1 (Dropout)                 (None, 32)                      0           
________________________________________________________________________________
dense_1 (Dense)                     (None, 32)                      1056        
________________________________________________________________________________
dropout (Dropout)                   (None, 32)                      0           
________________________________________________________________________________
dense (Dense)                       (None, 1)                       33          
================================================================================
Total params: 13,921
Trainable params: 13,921
Non-trainable params: 0
________________________________________________________________________________
