Model: "sequential"
________________________________________________________________________________
Layer (type)                        Output Shape                    Param #     
================================================================================
dense_4 (Dense)                     (None, 64)                      6592        
________________________________________________________________________________
dropout_3 (Dropout)                 (None, 64)                      0           
________________________________________________________________________________
dense_3 (Dense)                     (None, 64)                      4160        
________________________________________________________________________________
dropout_2 (Dropout)                 (None, 64)                      0           
________________________________________________________________________________
dense_2 (Dense)                     (None, 16)                      1040        
________________________________________________________________________________
dropout_1 (Dropout)                 (None, 16)                      0           
________________________________________________________________________________
dense_1 (Dense)                     (None, 16)                      272         
________________________________________________________________________________
dropout (Dropout)                   (None, 16)                      0           
________________________________________________________________________________
dense (Dense)                       (None, 1)                       17          
================================================================================
Total params: 12,081
Trainable params: 12,081
Non-trainable params: 0
________________________________________________________________________________
