Model: "sequential"
________________________________________________________________________________
Layer (type)                        Output Shape                    Param #     
================================================================================
dense_4 (Dense)                     (None, 64)                      6592        
________________________________________________________________________________
dropout_3 (Dropout)                 (None, 64)                      0           
________________________________________________________________________________
dense_3 (Dense)                     (None, 16)                      1040        
________________________________________________________________________________
dropout_2 (Dropout)                 (None, 16)                      0           
________________________________________________________________________________
dense_2 (Dense)                     (None, 8)                       136         
________________________________________________________________________________
dropout_1 (Dropout)                 (None, 8)                       0           
________________________________________________________________________________
dense_1 (Dense)                     (None, 8)                       72          
________________________________________________________________________________
dropout (Dropout)                   (None, 8)                       0           
________________________________________________________________________________
dense (Dense)                       (None, 1)                       9           
================================================================================
Total params: 7,849
Trainable params: 7,849
Non-trainable params: 0
________________________________________________________________________________
