Model: "sequential"
________________________________________________________________________________
Layer (type)                        Output Shape                    Param #     
================================================================================
dense_4 (Dense)                     (None, 32)                      3296        
________________________________________________________________________________
dropout_3 (Dropout)                 (None, 32)                      0           
________________________________________________________________________________
dense_3 (Dense)                     (None, 64)                      2112        
________________________________________________________________________________
dropout_2 (Dropout)                 (None, 64)                      0           
________________________________________________________________________________
dense_2 (Dense)                     (None, 32)                      2080        
________________________________________________________________________________
dropout_1 (Dropout)                 (None, 32)                      0           
________________________________________________________________________________
dense_1 (Dense)                     (None, 16)                      528         
________________________________________________________________________________
dropout (Dropout)                   (None, 16)                      0           
________________________________________________________________________________
dense (Dense)                       (None, 1)                       17          
================================================================================
Total params: 8,033
Trainable params: 8,033
Non-trainable params: 0
________________________________________________________________________________
