Model: "sequential"
________________________________________________________________________________
Layer (type)                        Output Shape                    Param #     
================================================================================
dense_4 (Dense)                     (None, 128)                     13184       
________________________________________________________________________________
dropout_3 (Dropout)                 (None, 128)                     0           
________________________________________________________________________________
dense_3 (Dense)                     (None, 16)                      2064        
________________________________________________________________________________
dropout_2 (Dropout)                 (None, 16)                      0           
________________________________________________________________________________
dense_2 (Dense)                     (None, 8)                       136         
________________________________________________________________________________
dropout_1 (Dropout)                 (None, 8)                       0           
________________________________________________________________________________
dense_1 (Dense)                     (None, 16)                      144         
________________________________________________________________________________
dropout (Dropout)                   (None, 16)                      0           
________________________________________________________________________________
dense (Dense)                       (None, 1)                       17          
================================================================================
Total params: 15,545
Trainable params: 15,545
Non-trainable params: 0
________________________________________________________________________________
