…
> 
> # build the neural network
> four.layer.model <- function() {
+   model <- keras_model_sequential() 
+   model %>%
+     layer_dense(units =  .... [TRUNCATED] 

> layer4_model <- four.layer.model()

> layer4_model %>% summary()
Model: "sequential"
____________________________________________________________________________________________________
 Layer (type)                                Output Shape                            Param #        
====================================================================================================
 dense_4 (Dense)                             (None, 64)                              6592           
 dropout_3 (Dropout)                         (None, 64)                              0              
 dense_3 (Dense)                             (None, 32)                              2080           
 dropout_2 (Dropout)                         (None, 32)                              0              
 dense_2 (Dense)                             (None, 64)                              2112           
 dropout_1 (Dropout)                         (None, 64)                              0              
 dense_1 (Dense)                             (None, 8)                               520            
 dropout (Dropout)                           (None, 8)                               0              
 dense (Dense)                               (None, 1)                               9              
====================================================================================================
Total params: 11,313
Trainable params: 11,313
Non-trainable params: 0
____________________________________________________________________________________________________

> # define early stop monitor
> early_stop <- callback_early_stopping(monitor = "val_loss", patience = 20)

> # define the number of epochs
…
