Model: "sequential"
________________________________________________________________________________
Layer (type)                        Output Shape                    Param #     
================================================================================
dense_4 (Dense)                     (None, 32)                      3296        
________________________________________________________________________________
dropout_3 (Dropout)                 (None, 32)                      0           
________________________________________________________________________________
dense_3 (Dense)                     (None, 32)                      1056        
________________________________________________________________________________
dropout_2 (Dropout)                 (None, 32)                      0           
________________________________________________________________________________
dense_2 (Dense)                     (None, 8)                       264         
________________________________________________________________________________
dropout_1 (Dropout)                 (None, 8)                       0           
________________________________________________________________________________
dense_1 (Dense)                     (None, 16)                      144         
________________________________________________________________________________
dropout (Dropout)                   (None, 16)                      0           
________________________________________________________________________________
dense (Dense)                       (None, 1)                       17          
================================================================================
Total params: 4,777
Trainable params: 4,777
Non-trainable params: 0
________________________________________________________________________________
