…
> 
> # build the neural network
> five.layer.model <- function() {
+   model <- keras_model_sequential() 
+   model %>%
+     layer_dense(units =  .... [TRUNCATED] 

> layer5_model <- five.layer.model()

> layer5_model %>% summary()
Model: "sequential"
____________________________________________________________________________________________________
Layer (type)                                 Output Shape                            Param #        
====================================================================================================
dense_5 (Dense)                              (None, 128)                             13184          
____________________________________________________________________________________________________
dropout_4 (Dropout)                          (None, 128)                             0              
____________________________________________________________________________________________________
dense_4 (Dense)                              (None, 32)                              4128           
____________________________________________________________________________________________________
dropout_3 (Dropout)                          (None, 32)                              0              
____________________________________________________________________________________________________
dense_3 (Dense)                              (None, 16)                              528            
____________________________________________________________________________________________________
dropout_2 (Dropout)                          (None, 16)                              0              
____________________________________________________________________________________________________
dense_2 (Dense)                              (None, 4)                               68             
____________________________________________________________________________________________________
dropout_1 (Dropout)                          (None, 4)                               0              
____________________________________________________________________________________________________
dense_1 (Dense)                              (None, 128)                             640            
____________________________________________________________________________________________________
dropout (Dropout)                            (None, 128)                             0              
____________________________________________________________________________________________________
dense (Dense)                                (None, 1)                               129            
====================================================================================================
Total params: 18,677
Trainable params: 18,677
Non-trainable params: 0
____________________________________________________________________________________________________

> # define early stop monitor
> early_stop <- callback_early_stopping(monitor = "val_loss", patience = 20)

> # define the number of epochs
…
