Model: "sequential"
________________________________________________________________________________
Layer (type)                        Output Shape                    Param #     
================================================================================
dense_4 (Dense)                     (None, 128)                     13184       
________________________________________________________________________________
dropout_3 (Dropout)                 (None, 128)                     0           
________________________________________________________________________________
dense_3 (Dense)                     (None, 32)                      4128        
________________________________________________________________________________
dropout_2 (Dropout)                 (None, 32)                      0           
________________________________________________________________________________
dense_2 (Dense)                     (None, 32)                      1056        
________________________________________________________________________________
dropout_1 (Dropout)                 (None, 32)                      0           
________________________________________________________________________________
dense_1 (Dense)                     (None, 8)                       264         
________________________________________________________________________________
dropout (Dropout)                   (None, 8)                       0           
________________________________________________________________________________
dense (Dense)                       (None, 1)                       9           
================================================================================
Total params: 18,641
Trainable params: 18,641
Non-trainable params: 0
________________________________________________________________________________
