Model: "sequential_2"
________________________________________________________________________________
Layer (type)                        Output Shape                    Param #     
================================================================================
dense_12 (Dense)                    (None, 128)                     13184       
________________________________________________________________________________
dropout_9 (Dropout)                 (None, 128)                     0           
________________________________________________________________________________
dense_11 (Dense)                    (None, 16)                      2064        
________________________________________________________________________________
dropout_8 (Dropout)                 (None, 16)                      0           
________________________________________________________________________________
dense_10 (Dense)                    (None, 32)                      544         
________________________________________________________________________________
dropout_7 (Dropout)                 (None, 32)                      0           
________________________________________________________________________________
dense_9 (Dense)                     (None, 4)                       132         
________________________________________________________________________________
dropout_6 (Dropout)                 (None, 4)                       0           
________________________________________________________________________________
dense_8 (Dense)                     (None, 128)                     640         
________________________________________________________________________________
dropout_5 (Dropout)                 (None, 128)                     0           
________________________________________________________________________________
dense_7 (Dense)                     (None, 1)                       129         
================================================================================
Total params: 16,693
Trainable params: 16,693
Non-trainable params: 0
________________________________________________________________________________
