Model: "sequential"
________________________________________________________________________________
Layer (type)                        Output Shape                    Param #     
================================================================================
dense_5 (Dense)                     (None, 64)                      6592        
________________________________________________________________________________
dropout_4 (Dropout)                 (None, 64)                      0           
________________________________________________________________________________
dense_4 (Dense)                     (None, 16)                      1040        
________________________________________________________________________________
dropout_3 (Dropout)                 (None, 16)                      0           
________________________________________________________________________________
dense_3 (Dense)                     (None, 32)                      544         
________________________________________________________________________________
dropout_2 (Dropout)                 (None, 32)                      0           
________________________________________________________________________________
dense_2 (Dense)                     (None, 8)                       264         
________________________________________________________________________________
dropout_1 (Dropout)                 (None, 8)                       0           
________________________________________________________________________________
dense_1 (Dense)                     (None, 128)                     1152        
________________________________________________________________________________
dropout (Dropout)                   (None, 128)                     0           
________________________________________________________________________________
dense (Dense)                       (None, 1)                       129         
================================================================================
Total params: 9,721
Trainable params: 9,721
Non-trainable params: 0
________________________________________________________________________________
