…
> 
> # build the neural network
> three.layer.model <- function() {
+   model <- keras_model_sequential() 
+   model %>%
+     layer_dense(units = .... [TRUNCATED] 

> layer3_model <- three.layer.model()

> layer3_model %>% summary()
Model: "sequential"
____________________________________________________________________________________________________
 Layer (type)                                Output Shape                            Param #        
====================================================================================================
 dense_3 (Dense)                             (None, 256)                             25088          
 dropout_2 (Dropout)                         (None, 256)                             0              
 dense_2 (Dense)                             (None, 16)                              4112           
 dropout_1 (Dropout)                         (None, 16)                              0              
 dense_1 (Dense)                             (None, 8)                               136            
 dropout (Dropout)                           (None, 8)                               0              
 dense (Dense)                               (None, 1)                               9              
====================================================================================================
Total params: 29,345
Trainable params: 29,345
Non-trainable params: 0
____________________________________________________________________________________________________

> #early_stop <- callback_early_stopping(monitor = "val_loss", patience = 4)
> 
> # define the number of epochs
> epochs <- 50
…
